{"class_name": "Sequential", "keras_version": "2.0.8", "backend": "tensorflow", "config": [{"class_name": "Conv2D", "config": {"bias_regularizer": null, "trainable": true, "kernel_constraint": null, "filters": 16, "bias_initializer": {"class_name": "Zeros", "config": {}}, "strides": [1, 1], "kernel_regularizer": null, "bias_constraint": null, "use_bias": true, "dtype": "float32", "kernel_size": [1, 1], "kernel_initializer": {"class_name": "VarianceScaling", "config": {"distribution": "uniform", "seed": null, "scale": 1.0, "mode": "fan_avg"}}, "padding": "valid", "activity_regularizer": null, "dilation_rate": [1, 1], "data_format": "channels_first", "batch_input_shape": [null, 1, 2, 512], "name": "conv2d_1", "activation": "relu"}}, {"class_name": "Conv2D", "config": {"bias_regularizer": null, "trainable": true, "kernel_constraint": null, "filters": 16, "bias_initializer": {"class_name": "Zeros", "config": {}}, "strides": [1, 1], "kernel_regularizer": null, "bias_constraint": null, "use_bias": true, "kernel_size": [1, 1], "kernel_initializer": {"class_name": "VarianceScaling", "config": {"distribution": "uniform", "seed": null, "scale": 1.0, "mode": "fan_avg"}}, "padding": "valid", "activity_regularizer": null, "dilation_rate": [1, 1], "data_format": "channels_first", "name": "conv2d_2", "activation": "relu"}}, {"class_name": "MaxPooling2D", "config": {"strides": [2, 2], "padding": "valid", "trainable": true, "pool_size": [2, 2], "name": "max_pooling2d_1", "data_format": "channels_first"}}, {"class_name": "Dropout", "config": {"trainable": true, "name": "dropout_1", "rate": 0.25}}, {"class_name": "Flatten", "config": {"trainable": true, "name": "flatten_1"}}, {"class_name": "Dense", "config": {"bias_initializer": {"class_name": "Zeros", "config": {}}, "trainable": true, "kernel_constraint": null, "kernel_regularizer": null, "bias_constraint": null, "use_bias": true, "bias_regularizer": null, "activity_regularizer": null, "name": "dense_1", "units": 128, "kernel_initializer": {"class_name": "VarianceScaling", "config": {"distribution": "uniform", "seed": null, "scale": 1.0, "mode": "fan_avg"}}, "activation": "relu"}}, {"class_name": "Dropout", "config": {"trainable": true, "name": "dropout_2", "rate": 0.25}}, {"class_name": "Dense", "config": {"bias_initializer": {"class_name": "Zeros", "config": {}}, "trainable": true, "kernel_constraint": null, "kernel_regularizer": null, "bias_constraint": null, "use_bias": true, "bias_regularizer": null, "activity_regularizer": null, "name": "dense_2", "units": 5, "kernel_initializer": {"class_name": "VarianceScaling", "config": {"distribution": "uniform", "seed": null, "scale": 1.0, "mode": "fan_avg"}}, "activation": "softmax"}}]}